checkpoint.pt (torch_old, 161913 bytes, 23 tensors)

GCNs.0.MLP.linears.0.weight f4 [128, 35]
00000000: e199 c73d 366b cebc a1dd 593a 8b64 a4bc
00000010: 9872 34be f7a5 cabd d136 9e3d 318e c0ba
00000020: 3c5f 3abe 55b3 0d3e a6a0 84bc bf9a 18be
00000030: 5c2c 23be 486d 233e 50c5 be3b 19d9 be3d
00000040: 5def 9d3d ad98 db3d 34bd 61bd 0506 223e
00000050: 2bb4 c33d 7cc0 96bd 94c6 363e 9253 7b3d
00000060: db19 9b3d d78a 3c3e 0759 11be f09e 803d
00000070: 43af 3d3e 10c8 863d 3daf 80bc d643 4bbe
00000080: 612b 083e d598 3cbd 2da4 a13d 3e14 0bbd
00000090: 1a78 a03d e8d5 0c3e 28a7 6e3d d902 c3bd
000000a0: c66b 15be 97cf 613e d5e6 7ebd 3c27 41be
000000b0: 2f4e af3c 2db2 b63d a018 023c 042d babd
000000c0: ec4b 783d dc2b f13d dccc 72b9 ee52 a83d
000000d0: 2737 893d 4c2a f9bd 02d1 ffbc 20ca c13c
000000e0: 6fb9 133e 16da 1f3e 2ed1 043e f21a aa3d
000000f0: cfdc ed3c 5b7b 8f3d 615f 2abe f9bf 45be
00000100: 3771 3f3e 4dec 14be ab13 dcbd a124 33be
00000110: 5cfa 3abe 00d6 873c a8de dd3d a967 cbbd
00000120: fa82 ecbc 7006 1bbe ca55 8b3d 1685 dabc
00000130: e81d 803d 83a7 063e e7fd 80be 328f 12be
00000140: b58a 28be 61ca 2dbe 3e6d 9dbd dcd6 debd
00000150: b08c 93bb 25e1 21be 9542 ee3d 931a 253e
00000160: 348c aebd 5884 c83c 70a2 873d d73f 59bd
00000170: bde3 7dbe 7f80 563d ca0b f7bd 5ca1 e5bd
00000180: f1cf 56bd 59bb 2b3e caa8 6a3e 71ee d53d
00000190: 291c 113e ec2d c6bd 8cec ebbd 45b5 133e
000001a0: b835 61bd e147 e83d 5743 473c 048e f7bd
000001b0: 4c4f 2cbe 3571 1e3e 0bc5 943d b86a 28bd
000001c0: e760 c43d 80d5 83bd 7c3c dfbd 85a0 353d
000001d0: bdaf 32bc 63e9 2e3d b5c5 163e 2213 24bd
000001e0: 9cb3 abbd 37d5 263d 74c0 11be eec7 c3bd
000001f0: 5c85 1f3e 7de6 033e f42c 2abb e71a 01be
00000200: 3c02 bfbb d035 803d e4f9 9a3d 6580 a9bd
00000210: 1cbd 1abd e6a5 543e e8cf 3a3e 22f3 3cbe
00000220: 6adb dabd b310 9c3d c862 033e 5bb4 8fbd
00000230: 4324 2abe 9c15 24bc a848 263e 7c7c e3bd
00000240: 792e 2cbe 246b 053e c63f 573b 9972 cc3d
00000250: 803f febd 185b aa3d 8df4 d1bd 8425 f3bd
00000260: 765d 423e 437d 0cbe e751 e93c c02e 22be
00000270: 907b c7bc 805b dabc 3d4e 3bbb b67d d7bd
00000280: b89b 46bd 1b8b 24bb 1472 27be de14 da3c
00000290: 4f83 d3bd 85d3 fbbd 9a57 cfbc 9050 003d
000002a0: b3c0 a7bd bd77 2d3e 87fa e7bd e5e1 7cbd
000002b0: 73b1 bbbc 54f1 ae3c 58e2 c0ba 4843 72be
000002c0: 6e98 73be 0467 7c3d 5601 d9bd 92af f6bd
000002d0: e22a c7bb 2621 6c3c 4e88 163d ac4e eebd
000002e0: 6999 8e3d a0c7 d0bd 4c6c 063e 991e 133e
000002f0: ea97 98bd 1a7a bcbb 8e85 0f3e f1c5 0fbe
00000300: b2b2 7a3c 6f11 c3bd 6f2f 2abe c9e9 b63d
00000310: 1e48 f13c f94b 523e 20c9 a53d d37e 52be
00000320: 4809 563d dc96 febd fcf5 4d3d 41d5 de3d
00000330: 90e4 653d c94a 6fbb 2d8b 00be e27f a5bc
00000340: 8df4 9b3d d1c9 8fbc c6f5 173b 1a21 3aba
00000350: 00cf 7f3d e4e1 04be 9f8c 573e d93b b33d
00000360: 0e4e 7f3d 145a 183d 6139 8abd 848b 2d3d
00000370: be45 aabd bda1 c039 7139 243e 82e7 513d
00000380: 260b 47be 2e29 c63d a7dd 45bd b5ae 863c
00000390: d702 c43d c5a3 3cbe 7ba3 bfbd 20e3 c3bd
000003a0: 4d34 d0bd 1f36 473e 469a e33b 2d9c 173e
000003b0: e670 753d 2648 b03d fb2b ee3d 1d54 2bbd
000003c0: fba9 293d 70c9 7e3d f8c9 34be 3f82 f2bd
000003d0: 1e1f 1f3d 0d77 e9bc cdc3 abbd 80f1 e6bc
000003e0: d6e6 09bc 57ff 49be 1a08 acbc b84e 84bc
000003f0: 6ae6 96bd dbb9 7abd b75e e73d 9cb6 d13d
0.09746147 -0.025197607 0.00083109183 -0.020067474 -0.17621839 -0.098949365 0.07725299 -0.0014690814
-0.18200392 0.13837941 -0.016189884 -0.14902781 -0.1593489 0.15959656 0.0058218613 0.09318752
0.077116705 0.1072248 -0.05511208 0.15822609 0.09555849 -0.07360932 0.17849189 0.061358996
0.07573291 0.18412338 -0.14194117 0.06280315 0.18523888 0.06581128 -0.01570856 -0.19850096
0.13297798 -0.04604419 0.07892642 -0.03395485 0.078354076 0.13753474 0.05826488 -0.095220275
-0.14591894 0.22051845 -0.062231857 -0.18862623 0.021399586 0.08920703 0.007940441 -0.09090617
0.06061928 0.11775944 -0.00023155235 0.082189426 0.066999726 -0.121662706 -0.031227592 0.023655951
0.14426206 0.15610537 0.1297042 0.08305921 0.029035954 0.0700595 -0.16637947 -0.19311513
0.18695532 -0.14543267 -0.10745939 -0.17494442 -0.18259567 0.016581535 0.10833484 -0.09931881
-0.028871048 -0.15139174 0.06803472 -0.026674788 0.06255704 0.13149838 -0.25193712 -0.14312437
-0.16459163 -0.16971733 -0.07686852 -0.10880825 -0.0045028552 -0.15808542 0.11633793 0.16123419
-0.085228354 0.024477169 0.06622779 -0.053039398 -0.24793907 0.052368637 -0.120627955 -0.112124175
-0.052444402 0.16770686 0.2291595 0.1044587 0.14170898 -0.09676728 -0.11519727 0.14424618
-0.05498287 0.11341835 0.012162051 -0.12087634 -0.16827124 0.15472873 0.072641455 -0.0411174
0.09588795 -0.06437206 -0.10900208 0.044342536 -0.010906157 0.042703044 0.14723857 -0.04005731
-0.08383867 0.04073068 -0.14233571 -0.09559618 0.15578216 0.12880893 -0.0025966736 -0.12607919
-0.005829124 0.06260264 0.07567194 -0.082764424 -0.037778005 0.2076641 0.18243372 -0.18452123
-0.10686381 0.076203726 0.12830651 -0.07016822 -0.16615395 -0.010014918 0.16238654 -0.11107728
-0.16814603 0.13029152 0.0032844408 0.09982795 -0.124144554 0.08318156 -0.102517225 -0.1187239
0.18980965 -0.13719659 0.028481437 -0.15838146 -0.024350911 -0.026654959 -0.002858057 -0.10522024
-0.04848835 -0.0025107327 -0.16352111 0.026621278 -0.103277795 -0.122962035 -0.025310326 0.03132683
-0.08191051 0.16940208 -0.11327081 -0.061738867 -0.022911763 0.021355309 -0.0014715893 -0.23658478
-0.23788616 0.06162168 -0.10595958 -0.12045206 -0.00607811 0.0144122 0.036751084 -0.11636099
0.069628544 -0.101943254 0.1312725 0.14367141 -0.0745085 -0.0057518603 0.14015791 -0.14040352
0.015301393 -0.095248096 -0.16619657 0.0893131 0.029453333 0.20536794 0.08095002 -0.20556192
0.052254945 -0.12431118 0.050283417 0.10880519 0.056126177 -0.0036513081 -0.12553091 -0.02020258
0.07615004 -0.017552288 0.0023187264 -0.00071002694 0.06245327 -0.12976795 0.21049736 0.087516494
0.062330298 0.03719528 -0.067492254 0.04236938 -0.083140835 0.00036741598 0.16037537 0.051246174
-0.19437847 0.09675823 -0.048307087 0.016440729 0.09570854 -0.18421848 -0.09357353 -0.09564805
-0.101662256 0.1945424 0.006945881 0.1480567 0.05992212 0.08607511 0.11629482 -0.041828264
0.04142187 0.062203825 -0.1765517 -0.11841249 0.038848035 -0.02849915 -0.083869554 -0.028191328
-0.008416852 -0.1972631 -0.020999957 -0.016150817 -0.07368167 -0.0612124 0.11297362 0.10239908

GCNs.0.MLP.linears.0.bias f4 [128]
00000000: 41bf 6dbc 46fe 81bc 7b23 0abd 0d9d 3e3c
00000010: 9fef 4d3c 0ec5 c0bb 9556 bc3b b8f8 c73b
00000020: 0fac c13c 62de 2fbc 1e11 9abb 8b5e 6a3c
00000030: a22e 24bc ce70 c338 1599 113c 0174 05bd
00000040: 7547 073c 373d b2ba 79fc c2bb fd00 44bc
00000050: 88a8 0dbb 69bf 863c 2b8f 6e3c bc2e 2a3c
00000060: f29c d03b 4049 823c cbe1 9dbc 0f4a 903c
00000070: 5c9b 6139 02e2 213c a3d5 1c3c 08c4 393b
00000080: a502 3c3b 76d7 86ba 58ab fd3a dc4f b53c
00000090: 042d 9a3c adb6 9d3b 5edc 4dbc c988 c03c
000000a0: cbc5 403c eab5 b1bb 3650 11bc 0fa8 6b3c
000000b0: 4226 33bc 4877 6cbc 0b93 adbb c51a 293b
000000c0: 300c 933c 8b84 85bb f74f d43b 15b8 e9bb
000000d0: c34e 113c 4651 bc3c 2462 97bc 1d78 ce3a
000000e0: 98d7 07bb 4746 4a3c f533 3fbb 360c 69bc
000000f0: aad7 69bb 271c 543c 3c37 fbbb 1a74 ccbc
00000100: 9b01 efbb 206d 44bb c6b3 713b ad2f d23b
00000110: a47c 203a 8a2b 4e3a 6815 e7bc 5de2 81b9
00000120: 4340 223c 5b20 5dbc da76 85bb 13a5 863c
00000130: 6115 00bc c4d7 b53b 556a 873b 592c ffbb
00000140: 279e cebb 8182 47bc e1c5 093c 304c d3ba
00000150: ecd5 b03b cb7e 233c bcd8 ec3b f3d3 c0bb
00000160: b7e8 8eb9 2e01 7e3a 9eab 703c 5a44 07bb
00000170: 144b 22bc 40f6 bebc ee05 8abb 4178 93bb
00000180: 92b9 023c da4a 5d3b a375 aa3a 425d 453b
00000190: 6f44 0bbc 0ee0 9bbb 672f bb3b 80b6 07bc
000001a0: 12c0 573c aa33 b43c 6bfb 0cbc 4666 d0ba
000001b0: 0a56 913b 139b deba 043c eb3c 0437 73bc
000001c0: 6094 f7ba 38fb a2bb fac8 60bc 28b0 64bc
000001d0: 5b16 6c3b 83e5 583c 4d58 debb 81da 033c
000001e0: 56f2 593c cf47 88bc 652b 313c 9df3 ab3b
000001f0: 5be2 1fb8 ae81 6ebc a457 853c 1c54 823c
-0.0145109305 -0.015868317 -0.033725243 0.0116341235 0.012569337 -0.0058828657 0.005747626 0.0061026476
0.023641614 -0.010734173 -0.0047017476 0.014304767 -0.010020884 9.319336e-05 0.008886595 -0.032581333
0.008256783 -0.0013598566 -0.0059505072 -0.011963126 -0.0021615345 0.016448693 0.014560501 0.010387119
0.0063663656 0.015904069 -0.019272706 0.017613439 0.00021515548 0.009880545 0.009572419 0.0028345603
0.00286881 -0.0010287601 0.0019353433 0.022132806 0.018820293 0.0048130364 -0.012564747 0.023502724
0.0117659075 -0.005423297 -0.008869221 0.01438333 -0.010934414 -0.014432736 -0.00529707 0.002580331
0.017950147 -0.0040746382 0.006479259 -0.00713254 0.008868876 0.022987973 -0.018479414 0.0015752349
-0.002072787 0.012345857 -0.0029175256 -0.014224103 -0.0035681524 0.012946165 -0.0076664966 -0.024957705
-0.0072938926 -0.002997227 0.0036880835 0.006414375 0.00061220885 0.0007864764 -0.02820845 -0.0002477345
0.0099030165 -0.013496484 -0.004073006 0.016436135 -0.007817597 0.005549403 0.004132549 -0.007787269
-0.0063054743 -0.012177111 0.008408994 -0.0016120728 0.005396595 0.00997896 0.007227985 -0.0058846413
-0.00027257737 0.0009689507 0.014689354 -0.0020640106 -0.009905595 -0.02331078 -0.0042121327 -0.0045004194
0.007978814 0.003376654 0.0013005029 0.00301154 -0.008500203 -0.004756934 0.005712438 -0.0082832575
0.013168352 0.021997292 -0.008604865 -0.001589962 0.0044353055 -0.0016983472 0.028715141 -0.01484466
-0.0018888824 -0.0049737953 -0.013719792 -0.013958015 0.0036024067 0.013238314 -0.0067854286 0.008047701
0.013302406 -0.016635804 0.010813569 0.005247547 -3.8119364e-05 -0.014557285 0.016277142 0.015909247

GCNs.0.MLP.linears.1.weight f4 [64, 128]
00000000: 952f c0bd 8e7d 9e3b 63df cebd c6c4 ffbc
00000010: 1025 123e c83f 4dbd 4873 9f3a 9c4d e2bd
00000020: 655f 2d3e 3738 89bd bf9b 18bd 30ea 13be
00000030: f7eb 3f3d 35f6 233e 3ac8 01bd 68a0 223e
00000040: e3d2 703d 3120 283e da2b 1d3d a59f 91bd
00000050: 790b 8f3c 7e4c cb3d 04e8 8ebd 6020 6abd
00000060: b9af 80bb 2e36 ec3d 8785 00be 5550 813c
00000070: db37 bd3d c1bf 0fbd a7f5 a2bd 9f5b 383d
00000080: 7dcd 3d3e 0a68 47bd 39f1 993d 6ef5 36bd
00000090: ff24 6cbd 4ec5 f7bd 8acb d2bd 3d4c 1b3d
000000a0: e325 a2bd 2cf3 26be 1bb2 0ebe e474 043e
000000b0: 0312 033e b46a d3bd fc3b fabd 9ca2 aabc
000000c0: 3050 bf3d d29d 3a3e 3244 553d 7bcd f3bd
000000d0: 1f78 f0bd 9fb8 8cbd e2a6 313e 221d 95bd
000000e0: 5869 be3d d14d f8bd 5314 0ebe 164c 1f3d
000000f0: c055 693d 3ecc 183e 4501 a3bd 36db 0dbe
00000100: 76a0 9abd 62de 03bd 05c9 05be 4e47 f73d
00000110: d543 29be d127 ef3c d725 863d cd73 d93d
00000120: 8163 8f3d a852 193e 9402 c1bd fcf8 893e
00000130: c039 febd 1c45 f43d 1a98 f73d bde3 afbc
00000140: 2c58 403d d16a 133e 7e6f b2bd 0c86 2dbe
00000150: 45ee eebc a666 a33d facc e8bd 0a86 0c3d
00000160: 9296 ca3d b595 513e 5ec6 21be 1758 2a3d
00000170: 7875 013e 091f 3ebd e72f 45bd b2dc d63d
00000180: 17c6 363e 710c c1bd 70a1 8abd e280 02be
00000190: 1057 203e 972a 543d ceeb 843d f41c 1b3e
000001a0: f308 16be 4aea 27be 7203 133e 86fe 23be
000001b0: 93da 9d3d f096 873d 8c06 203d 9bb4 053e
000001c0: 45be 4abc 14c1 4cbd 5d7b ba3d ff32 023e
000001d0: 4582 383d 0e80 09bc 0953 05be 26c1 0b3d
000001e0: 00ca 9cbd 7bbe 2dbd a87e cbbd 0185 03be
000001f0: b85a 253e cd1e 943d b53d 293e 2793 78bd
00000200: d28f cd3b cb4e ca3c 20c6 a83d fe8a abbd
00000210: ba00 343c af1b 0abe 559f b2bd 0b24 1abd
00000220: 6451 8fbd cc21 493e 6205 243e 2caf c8bd
00000230: df07 f1bd b369 043e a6ca c83c ebc9 183e
00000240: fd17 d53b 0718 a7bd 7ebb 103e 669d 12be
00000250: b88d 1ebd f981 1c3e 0a4d 803d 1e5c 7bbc
00000260: 417f 0ebe b5be b93d c314 bbbc f466 2b3d
00000270: bc56 1d3d 7bae fcbd d20f 2bbd 5f83 b23d
00000280: f8f8 113e 1647 dc3c 1ba0 c33d 82e7 2cbe
00000290: f80d 1cbe d738 443e cfe7 503d d26d d93d
000002a0: 2829 283d 2e36 dabc 18d3 2e3e 2ce2 9ebd
000002b0: 217d 3b3d eb43 06be e5db 2a3d e498 d23d
000002c0: 808c ac3d 1f43 db3d cc41 263e 6178 d03d
000002d0: db00 393e 0fee 013c 9092 c4bc b93a 0ebd
000002e0: 2a48 12be fe2b 36bd 6dde fcbd 460a 943d
000002f0: 37aa 673d 9e1a 50bd 0a77 03be 88cc ce3d
00000300: 9029 bc3d 7e24 ce3d ee28 99bd b202 5d3d
00000310: b9e6 f5bd 6525 263e 1397 f73d 78f4 2abc
00000320: 36d0 1dbe 7cc9 023d d26a a8bd bda7 d9bb
00000330: 0c26 f6bd e1fd a7bc df86 1f3e 20c6 303e
00000340: 7fe3 de3d 48fa 19be 5a97 99bd 9ea5 e93d
00000350: e893 a83d e492 113e 0af6 c9bd a66f 25be
00000360: da2d 07bd 94ce c8bd 8951 7dbd 716f d23d
00000370: ba03 bdbd 90df b03d 893b 2b3e 1861 033c
00000380: 3695 06be 6bdc 973d a936 90bd 0fa8 4dbc
00000390: a56c ee3b 593d 74bd 380e 1c3e 1ca3 823d
000003a0: 28b1 c23d 3e0d fc3d 1d7f 233d e492 ee3d
000003b0: b587 cbbc a10b 503c 99e5 84bc 0ced 81bd
000003c0: 8699 123d 8597 3f3e 1651 e43c fd8f 53bc
000003d0: cabd 21bd f482 fdbd d77e d33d b32d e23d
000003e0: b5ad 26bd f6c4 2a3d f385 18be 1610 c63d
000003f0: 7660 49bd eb93 29be 13e6 a7bd 5313 1d3e
-0.093840756 0.0048367446 -0.101012014 -0.031221759 0.1427195 -0.050109655 0.0012165094 -0.11049959
0.16930921 -0.06700175 -0.037257906 -0.14444804 0.046855893 0.1601189 -0.03168509 0.15881503
0.058794867 0.1641853 0.0383719 -0.07110528 0.017461525 0.09926699 -0.06977847 -0.05715978
-0.003927198 0.115337715 -0.12550937 0.015785376 0.09239169 -0.03509498 -0.07957011 0.04500925
0.18535419 -0.048683204 0.07516713 -0.044667654 -0.05765247 -0.1209818 -0.10292728 0.037914503
-0.079173826 -0.163037 -0.1393513 0.12935215 0.1279984 -0.103230864 -0.12218472 -0.020829491
0.093414664 0.18224266 0.05206699 -0.11904427 -0.11741661 -0.06871151 0.17348817 -0.07280947
0.092974365 -0.12124217 -0.1387494 0.03889092 0.056966543 0.14921662 -0.079592265 -0.13853154
-0.07550137 -0.032194503 -0.13064964 0.12074147 -0.16529782 0.02919379 0.06550186 0.1061779
0.07001401 0.14972937 -0.0942432 0.26947773 -0.12413359 0.11927244 0.12089558 -0.021470899
0.046959087 0.14396216 -0.08712672 -0.16945666 -0.02916635 0.07978563 -0.11367221 0.034307517
0.09892 0.20467265 -0.15798327 0.041587915 0.12642467 -0.046416316 -0.048141386 0.10491313
0.17849003 -0.09426201 -0.06769073 -0.12744477 0.15658212 0.05179843 0.06490289 0.15147763
-0.14651851 -0.16397968 0.14356783 -0.16015062 0.07707705 0.06620586 0.039068744 0.13057177
-0.012374465 -0.04998882 0.09105561 0.12714766 0.04504611 -0.008392347 -0.13019957 0.034119748
-0.07655716 -0.042417984 -0.09936267 -0.12843706 0.16147888 0.07232437 0.16527446 -0.06068721
0.0062732482 0.024695775 0.08240914 -0.0837612 0.010986501 -0.13487123 -0.087217964 -0.03763203
-0.06997946 0.19641799 0.16017678 -0.097990364 -0.117690794 0.12930946 0.024510693 0.14920776
0.0065031038 -0.0815888 0.14134023 -0.14317855 -0.038709372 0.15283956 0.06264694 -0.015341787
-0.13915731 0.090695776 -0.022837048 0.04184623 0.038412794 -0.12337967 -0.041763134 0.08716463
0.1425513 0.026889365 0.09552022 -0.16885188 -0.15239704 0.19162308 0.05100232 0.1061665
0.041054875 -0.026637163 0.17072713 -0.077579826 0.04577363 -0.13111846 0.041713614 0.10283068
0.08425236 0.10706162 0.16236037 0.101792105 0.18066733 0.007930293 -0.023995668 -0.03472397
-0.14285341 -0.044475548 -0.12347112 0.07228522 0.056558814 -0.050806634 -0.12838379 0.10097605
0.09187615 0.10065554 -0.0747851 0.05395765 -0.120068975 0.16225202 0.12089362 -0.010434262
-0.15411457 0.03193043 -0.08223499 -0.0066423104 -0.120189756 -0.020506801 0.15578793 0.17263079
0.10883235 -0.15036881 -0.07499571 0.11408542 0.08231336 0.1421619 -0.09861381 -0.16155872
-0.03300271 -0.09805027 -0.061845336 0.10275162 -0.092292264 0.08636391 0.1672193 0.008018754
-0.13142857 0.07415088 -0.070416756 -0.012552275 0.007276135 -0.05962882 0.15239799 0.06378767
0.09506446 0.12307213 0.039916147 0.11649111 -0.024844984 0.012698085 -0.016222762 -0.06344041
0.035790943 0.18710144 0.027870696 -0.012912747 -0.039487638 -0.12378493 0.10326927 0.11043873
-0.040693004 0.041691743 -0.14894848 0.09671037 -0.049164258 -0.16560332 -0.0819818 0.15339403

GCNs.0.MLP.linears.1.bias f4 [64]
00000000: 25b5 d23c 73a1 a73c e0d7 f7bc 55c3 d3bc
00000010: b433 07bd f817 b43c 9084 d9bc 0a45 bf3c
00000020: 3db1 8a3b aea4 83bd e056 b13b 67c6 b8ba
00000030: 6b93 3dbc 81db 883c 2cd9 bb3b 7676 83bb
00000040: c01f 593b ce82 463d 4e4b 16bd f747 39bd
00000050: 4e63 88bc 80c8 4a3c 914e 1f3d 7159 783c
00000060: 3ca5 d6bc 664b b33a cb54 903c 9f35 10bc
00000070: 0376 9a3c ab6f bf3c dcc3 893c 7d9b 53bc
00000080: bd0b 303d bbcc 68bc 00d3 0dba fc8d 803c
00000090: 4359 bebc 660b 14bd 7c76 b8bc 158e 5f3c
000000a0: 87ad f9bc 9877 a63c dd8c b03c cf93 a9bc
000000b0: 181c b23c 779e 1dbd f5c3 9dbc 4eae 473c
000000c0: 97dd 683c d727 0d3b a28d 38b9 3717 2ebc
000000d0: ead2 08bd 266f 90bb d5a9 c6ba abcc 2bbb
000000e0: 1159 493c 58dc 793c 95de aabb fb3a 7f3b
000000f0: b897 a8bc 840b 443c cf73 29bc 03ac 9bbc
0.025721142 0.020462727 -0.030254304 -0.025849978 -0.033008292 0.021984085 -0.026552469 0.02334835
0.004232554 -0.064278945 0.0054119676 -0.0014097214 -0.011570792 0.01670623 0.005732676 -0.0040119244
0.0033130497 0.04846459 -0.03669291 -0.045234647 -0.016648915 0.0123769045 0.038893286 0.015158043
-0.026201837 0.0013679087 0.017618557 -0.008801847 0.0188551 0.023368677 0.016817026 -0.012915489
0.042979944 -0.014208968 -0.00054101646 0.015692703 -0.023235923 -0.036143683 -0.022517435 0.013644715
-0.030478252 0.020320699 0.021551544 -0.020700363 0.021741912 -0.038481202 -0.019258479 0.012187554
0.014212987 0.002153864 -0.0001760037 -0.010625652 -0.03340427 -0.004407781 -0.0015156815 -0.002621452
0.0122893015 0.015250288 -0.005214522 0.0038945067 -0.020580158 0.011965636 -0.010342552 -0.01900292

GCNs.0.MLP.batch_norms.0.weight f4 [128]
00000000: b857 803f 131e 803f 7642 813f bc3f 7d3f
00000010: f760 863f 34f0 7e3f f894 803f 7efb 813f
00000020: 6120 7d3f 6f8a 843f 37c4 803f 94c3 843f
00000030: 0839 8a3f 6e69 813f 11ff 863f 5aaf 7f3f
00000040: 3db5 803f c435 7f3f 7503 783f 5051 803f
00000050: 9836 7d3f 0a76 7e3f b0d6 853f 44ae 7e3f
00000060: 2aa1 7f3f 3096 7e3f 00aa 7c3f e77a 893f
00000070: c77d 7d3f a15c 7f3f 6a98 7e3f 597f 8b3f
00000080: 8961 7f3f 0993 7e3f a066 7e3f c776 8a3f
00000090: ee0d 7b3f 0fa3 8c3f 99dd 7f3f b718 863f
000000a0: 4faf 7d3f 1c3b 7e3f cfff 823f 57fd 803f
000000b0: 5348 7c3f 7bf4 7d3f d484 7d3f 943c 7e3f
000000c0: 0668 7d3f 6485 833f d7f9 833f fd42 7f3f
000000d0: 621d 853f c7fd 7c3f f148 7c3f 5689 803f
000000e0: f4bd 883f dee1 7d3f 6d2d 7a3f f26a 7d3f
000000f0: ca4f 7f3f 713f 803f a9a4 803f f8c0 7c3f
00000100: 04ec 7c3f fbd7 7d3f f45a 863f ba05 853f
00000110: 8f7f 7c3f cd39 7e3f e367 803f 2380 7c3f
00000120: 9bdd 7e3f de0b 7f3f f468 803f 98ac 883f
00000130: b952 7c3f 8c86 7f3f 42cd 793f 50e6 813f
00000140: c4a2 8b3f 4378 823f e196 7d3f 9e75 893f
00000150: a365 773f b481 783f 51ed 7d3f 02d9 7e3f
00000160: 874e 7b3f b317 823f 3416 813f 0f21 7b3f
00000170: f437 863f 485a 8c3f 06e3 863f 80ad 843f
00000180: 764e 8b3f a768 8b3f 6054 863f e82a 823f
00000190: 9144 873f 3e29 833f 3346 7c3f 7432 823f
000001a0: e489 893f d7d1 853f 1fee 873f 7574 7b3f
000001b0: 7e15 803f a98a 7f3f c58d 803f 0590 7f3f
000001c0: c088 7e3f 20f7 833f 433c 8f3f 8c80 813f
000001d0: d66d 7d3f 1439 883f 5c50 853f fcd0 7a3f
000001e0: 751a 7a3f 95f5 7b3f e6c0 7c3f c5c1 853f
000001f0: cb8f 803f 2a1c 843f 6041 7f3f d98b 883f
1.002677 1.0009178 1.0098407 0.98925376 1.0498341 0.9958527 1.0045462 1.0154874
0.9887753 1.0354747 1.005988 1.0372186 1.0798655 1.01103 1.054659 0.9987694
1.005531 0.99691415 0.96880275 1.0024815 0.9891143 0.99398863 1.0456142 0.9948466
0.9985529 0.9944792 0.986969 1.0740632 0.99020046 0.99750715 0.99451315 1.0898238
0.997582 0.9944311 0.99375343 1.0817498 0.9806813 1.0987262 0.99947506 1.0476292
0.99095625 0.99308944 1.0234317 1.0077313 0.9854786 0.9920117 0.99030805 0.99311185
0.9898685 1.0275083 1.031062 0.9971159 1.0399592 0.98824733 0.985488 1.0041912
1.0682969 0.9917277 0.97725564 0.9899131 0.99731123 1.0019361 1.005025 0.98731947
0.9879763 0.99157685 1.0496507 1.0392373 0.9863214 0.99306947 1.0031704 0.9863302
0.99556893 0.9962748 1.0032029 1.0677671 0.98563725 0.9981468 0.97578824 1.0148411
1.0909047 1.0192951 0.9905835 1.0739019 0.9663946 0.9707291 0.9919024 0.9954988
0.981667 1.0163482 1.0084901 0.9809732 1.0485826 1.0965052 1.0538032 1.0365448
1.0883319 1.0891312 1.0494499 1.0169344 1.05678 1.0246961 0.98544616 1.0171647
1.0745206 1.0454663 1.0619544 0.98224574 1.0006559 0.99820954 1.0043265 0.9982913
0.99427414 1.0309792 1.1190265 1.0117354 0.9899572 1.0642419 1.0415149 0.97975135
0.9769662 0.98421603 0.9873184 1.0449759 1.0043882 1.0321095 0.9970913 1.0667678

GCNs.0.MLP.batch_norms.0.bias f4 [128]
00000000: f8b3 ce3c 72b5 d73c 1593 703b ee0b 823c
00000010: 17fb 903c 268e 1b3d fea7 743d 12fe a83c
00000020: 3345 693c 9342 8e3c 6e9d 0a3c b852 633d
00000030: 3c83 313d ce6b 8b3c 13af 6b3d 92d4 873c
00000040: c2b9 c53c ed33 fe3b 772a 9bbc e621 2d3c
00000050: fde8 fd3c 8368 403c fb94 393d 91c8 08bd
00000060: 94d6 1e3d 5423 713d 78ab 163d 817f 4d3c
00000070: 03d3 193d b4c2 523c e994 6e3d 2a3c b73c
00000080: e1b8 c23c 3089 a73c 642d 0a3d 9c01 f53c
00000090: 9e23 7dbc ec6c 9d3d a698 74bc 30f0 803c
000000a0: 9cc6 fd3c a928 3dbc f27e 0dbc 56a8 d63b
000000b0: 28a2 ed39 f761 363c 14a7 1fba fd50 5f3d
000000c0: 7ba7 9abb 9ab1 103c c6b4 c73b 9985 273d
000000d0: 4b8a 463a 5bf1 133d 6f0e df39 1e64 c93c
000000e0: 59ed 0b3d 38ae 8a3c f853 72bb d901 b3bc
000000f0: bfb2 b0bc 65ad 143b 176f b53b ea34 153d
00000100: 7f03 b63b 440c 583d 3b7a 283c 4ebf f23c
00000110: b50c e63c fb06 a73c d6a2 213b 6a32 173d
00000120: d17a 173d 9983 7a3d 4c5d 9b3c a16e e7bb
00000130: 9b43 c9bc 189b 0cbb 8e2f 70bc 7481 e23c
00000140: f86b 093d 3aae c73d 51b1 6c3d 23cc f53c
00000150: 4783 3d3b 87dd f13c bf4a 663c 3f8a 4bbb
00000160: ff75 d13c d057 de3c 8d06 9f3b d648 a4bc
00000170: eaac 253d 06cb e33b 97df e93b 84eb 613d
00000180: d124 5a3d bd3e 273d c7e8 ea3c 548d 4d3d
00000190: f735 fd3c fb20 9e3c 10f2 083d 9ea7 05bd
000001a0: 3f42 3dbb c60e de3c b503 d13c 4422 b33a
000001b0: 9193 0b3d c1aa bf3c 6b93 fa3b 7030 1c3d
000001c0: 7163 143d bb82 413d 4eb6 0d3d dd52 003d
000001d0: fc1e 6d3c 0727 433d bab4 c73c e3c6 9ebb
000001e0: 415c 7c3d 3ed0 183c 15ec 963c a51e 0c3c
000001f0: b111 073d f180 17bd 9cb5 013d 611e 313d
0.0252323 0.026331637 0.0036708761 0.01587483 0.017697854 0.03797736 0.059730522 0.020628963
0.01423769 0.01736573 0.008460386 0.05549881 0.043338045 0.017019179 0.05754001 0.016580854
0.024136428 0.007757655 -0.018941147 0.010567164 0.030994887 0.011743668 0.045308094 -0.0333944
0.038778856 0.058871582 0.03678462 0.012542606 0.037554752 0.012863804 0.05824748 0.022367556
0.023769798 0.020451158 0.033734694 0.029907994 -0.015450386 0.07686791 -0.014928972 0.01573953
0.030978493 -0.011545339 -0.008636223 0.006550829 0.00045324978 0.011131755 -0.0006090265 0.054520596
-0.0047196723 0.008831406 0.006094548 0.040898893 0.0007573708 0.036118846 0.00042544628 0.024583872
0.0341619 0.016928777 -0.0036976319 -0.021851467 -0.021569608 0.002268636 0.0055369246 0.036427416
0.005554616 0.052746072 0.010283048 0.029632237 0.028082231 0.02038907 0.0024663708 0.036913313
0.03698236 0.061160658 0.018965386 -0.0070627485 -0.02456837 -0.0021454748 -0.014659775 0.027649619
0.033550233 0.09750028 0.05778629 0.030004567 0.0028917359 0.029524578 0.014055907 -0.0031057743
0.02556896 0.027141482 0.004853076 -0.020054262 0.040448107 0.0069516925 0.0071372497 0.055156246
0.053257767 0.040831316 0.02867545 0.05018361 0.030909522 0.019302836 0.033433974 -0.032630555
-0.0028878597 0.027106654 0.025514463 0.0013666828 0.034076277 0.023396851 0.007646968 0.03813213
0.036227647 0.047243815 0.034597687 0.031329025 0.014472719 0.04764464 0.02437817 -0.0048454865
0.061611418 0.009326993 0.01842312 0.008552228 0.032975856 -0.036988202 0.031667337 0.043241862

GCNs.0.MLP.batch_norms.0.running_mean f4 [128]
00000000: b131 483b 4f23 3ebc 6e34 66bd 3c64 913c
00000010: 2718 ae3b 0d90 8d3c 6eb9 e53c 68a2 1c3c
00000020: 1845 a03c 1a91 9cbc 49b0 18bc 98da 153c
00000030: a360 3dbc 2acf dcbb bb24 52ba d1ba 9ebb
00000040: d6bd 7b3a cf85 99ba 5f45 cabb 1c10 6bbc
00000050: a7ff 0a3c e48c aa3c 3faa 3c3b 5d46 4fbb
00000060: dea6 463c c302 d83c 22cb 37bc 36af 663c
00000070: 76bb 06bc fdaa 823c 4a59 823c 2192 40bb
00000080: 4caa 563b 6ff8 223c 151b fdbb fe64 583c
00000090: 03bc 7c3c a576 49bb 3263 cabb a603 453b
000000a0: 0308 863c c009 c1ba f784 b8bc 6c8b 0cbc
000000b0: 0b7f 96bc 27d7 56bc bc04 f43b d2da 7b3c
000000c0: 77b5 183c cd6d d8ba 6c32 c1bb 32d0 40bc
000000d0: 1b82 88bc 45f0 043d dff2 c5bc 2362 c9bb
000000e0: 446e 36bc 6c12 fa3b 2e9a b83b 8eb3 80bc
000000f0: f6c7 b0b9 af5c 1a3d 0bc6 8b3b 464e c7bc
00000100: 0b52 24bc 2fc5 6d3c 1f8a 95ba d9e7 38bb
00000110: 5b37 0a3d e3c1 2b3b 934c a7bc 65d8 cb3c
00000120: 9a54 683c f965 14bc f996 20bc d4c9 123c
00000130: 5d18 9638 f4e7 b1bb 3759 863b a36c c1bb
00000140: bf9f 67bc 6cfb 16bc 5424 c83c 2a7b 1fbc
00000150: b33a 813c 7966 c33b f992 0cbb 7eca d83b
00000160: 648a 083c 0bb7 b5bb 83c6 093c bd18 023d
00000170: 508b 69bc 8b9e 33bd 820a 10bc e816 25bc
00000180: d20a 8abb 301c 08ba b00a c9bb 3847 60bc
00000190: 5a0a 14bc 2eef 00bc db4d 53bb c814 72bc
000001a0: 45d1 01ba 9bef 813b af61 4cbc a296 38ba
000001b0: ad56 b53b 7328 a4bb 449f 063d 61da 68bc
000001c0: be71 9eba 1d23 93bc 2888 aebc a419 babc
000001d0: a73e de3c 94d0 3e3c 9309 07bd 5f6c 263d
000001e0: 8654 4b3c ae94 7abc 48de e43c e7b9 c4bc
000001f0: 7212 98bb 77aa bbbc ec23 143c 7ffc 61bb
0.0030547197 -0.011605098 -0.056202345 0.01774799 0.005312938 0.017280603 0.028042521 0.009560205
0.019564196 -0.019112159 -0.009319373 0.009146355 -0.0115586845 -0.006738563 -0.00080163375 -0.0048440476
0.0009603178 -0.0011712852 -0.0061728205 -0.0143471025 0.008483804 0.020819135 0.0028787998 -0.0031627633
0.012124745 0.026368504 -0.011217864 0.0140798595 -0.008223405 0.015950674 0.015911717 -0.0029383975
0.0032755313 0.0099469265 -0.0077241757 0.013207672 0.015425685 -0.0030740884 -0.006176376 0.003006199
0.016361242 -0.0014727637 -0.02252434 -0.008578163 -0.018371126 -0.01311282 0.0074468534 0.015371995
0.009320608 -0.0016512215 -0.0058959033 -0.011768388 -0.016663602 0.0324557 -0.024163662 -0.006145732
-0.011134688 0.0076315906 0.005633614 -0.015710618 -0.00033718318 0.037686046 0.004265552 -0.024329316
-0.010029326 0.014512344 -0.0011408961 -0.0028214364 0.033744197 0.0026208095 -0.020422256 0.024883458
0.014180327 -0.009057515 -0.00980162 0.008959252 7.1570954e-05 -0.0054292623 0.0040999907 -0.005902843
-0.0141372075 -0.009215217 0.024431385 -0.009733954 0.01577506 0.0059631434 -0.0021449907 0.006615936
0.008333776 -0.005545502 0.008409145 0.031761874 -0.014254406 -0.04385237 -0.008791568 -0.010076262
-0.0042127157 -0.00051921885 -0.0061353073 -0.013688855 -0.009035671 -0.007869525 -0.003224245 -0.014775462
-0.0004952143 0.003965331 -0.012474461 -0.0007041489 0.005534014 -0.0050097047 0.03286673 -0.014212222
-0.0012088341 -0.01796108 -0.021305159 -0.022717305 0.027129484 0.011646409 -0.032968115 0.040630694
0.012410289 -0.015294237 0.027938023 -0.024014426 -0.0046408707 -0.022908432 0.009041768 -0.0034482775

GCNs.0.MLP.batch_norms.0.running_var f4 [128]
00000000: b5b0 353d a290 e63c c2e1 ac3d 6d19 c03c
00000010: a7be a23c f7a9 c23d 32d9 903d 6464 043c
00000020: 7723 d13c 094e fc3c 21ab 503c 102e e13c
00000030: 0a77 813c 5c57 ed3c 7ca5 043d 428c a33d
00000040: 00f2 ca3c e953 ba3c 1abe f63c 24ba fb3c
00000050: b743 c23c d94e 9e3c 6cc3 153d 3d4b 333d
00000060: 89b5 ef3c 67f0 e73c 9140 f63c 55d2 643c
00000070: 2ad6 2d3d a889 df3c ff4c 5f3c b2a2 093c
00000080: e0bd e03c c99b f33c c1a7 353d e16a cd3c
00000090: 3b00 e23c 9eb3 d73c 382c 6b3c 3516 663d
000000a0: 91ed dc3c 97e1 d63c a773 033d fca1 a63d
000000b0: dabb d83c 2888 5b3c 479f e33c 2034 003d
000000c0: 6423 343d c0c8 383c 62f1 0b3d 17a1 c33c
000000d0: a46c cb3d 57d4 fb3c 6336 033d b409 073d
000000e0: 3ea4 a13c 1fa5 2b3d 4b39 283d 4794 a93c
000000f0: d1b0 343c ec96 ac3d 5929 073d 2831 bf3c
00000100: c900 db3c 9a8e 363d d443 a33c ae02 b23c
00000110: 9c2f 1d3e 1143 063d 79a3 8f3c 8453 d83d
00000120: 2427 053d 42d8 973c 35b4 9f3c 0011 8c3c
00000130: a373 3d3d 2f70 8a3d d6e8 b03c 95b3 e03c
00000140: 4443 b03c 48f1 943c e878 253d baa7 a53c
00000150: 6491 df3c 8f26 d33c 7505 e13c 4074 0d3d
00000160: 4f26 183d 28c2 913c 8bbe 953c 87fd 2e3e
00000170: 72c1 813c d01a 803d cb09 1f3c a32d 963c
00000180: 3c3a fe3c 42c4 943c bbee 923c ca9d 483d
00000190: 7cc8 333c 3b95 b43c 795e ae3d 5d70 a63c
000001a0: c2df 143d 81b0 383d dece 443c c929 cd3c
000001b0: 9f10 303c 5acd f13c c738 a13c 5c09 753c
000001c0: 431e 9e3c 67f7 823d b272 963c a0e9 213d
000001d0: 8a8e ab3d e698 723c 5187 c93d 88bd 083e
000001e0: a328 843c de22 ac3c 3886 713d d05f d23d
000001f0: a36b cf3c e9ca a13c 512c f43c 3079 943d
0.044357974 0.028145138 0.084414974 0.023449624 0.0198663 0.095050745 0.07072677 0.008080576
0.025529606 0.030798929 0.012736113 0.027487785 0.015803833 0.02897232 0.03238438 0.079857364
0.024773598 0.02274509 0.030119944 0.030728407 0.02371393 0.019324707 0.036563322 0.043772925
0.029261367 0.028312875 0.030060085 0.013966163 0.04244057 0.02728732 0.013629197 0.008400606
0.02743429 0.02973737 0.044349436 0.025075378 0.027588 0.026330765 0.014353804 0.056173522
0.02696875 0.026230616 0.032092717 0.08136365 0.026456762 0.013399161 0.02778591 0.03129971
0.043979064 0.011278331 0.034165747 0.023880525 0.09932831 0.0307409 0.03203429 0.032968238
0.019731637 0.04190552 0.041070264 0.020700587 0.011028484 0.084272236 0.032998417 0.02333887
0.026733773 0.04456959 0.019929804 0.021729793 0.15350193 0.032778803 0.017534005 0.10562804
0.03250803 0.018535737 0.01949511 0.01709795 0.046252858 0.067596786 0.0215954 0.027429381
0.02151645 0.018181458 0.04039851 0.02022158 0.027291007 0.025775222 0.027468422 0.034534693
0.03714591 0.017792776 0.018279335 0.170889 0.015839312 0.06255114 0.009706925 0.018332308
0.031033628 0.01815999 0.017936101 0.048978604 0.010973092 0.022043815 0.08514113 0.02031725
0.036346205 0.045090202 0.012012212 0.025044339 0.01074615 0.029516865 0.019680394 0.014955845
0.01930154 0.063948445 0.018365238 0.039529443 0.083767965 0.014806962 0.09840263 0.1335355
0.016132658 0.02101272 0.05896589 0.10272181 0.02531988 0.019750075 0.029806288 0.07249677

GCNs.1.MLP.linears.0.weight f4 [128, 64]
00000000: 9874 d0bd 8ad9 43bd b7f7 1cbd e835 29bd
00000010: 1dae 113e bae4 0dbd 6177 dc3d ee8b 143e
00000020: 37f3 0d3c 60ff f43a 2237 873c 51e9 07bc
00000030: 5835 cdbd 6018 4c3d 2aeb aebc 4817 11be
00000040: a9a3 64bd f51a c33d 12e8 e9bc 5312 24bd
00000050: 3dcc 1bbe 8ea2 8f3d 7ce8 f03d 98fe 2f3e
00000060: bbe8 263e 4311 2c3c 5b36 b83d 3fce 2b3b
00000070: 5962 75bc 5b02 ab3c e0cc 56bc 98ca 8f3b
00000080: 41d6 d03d b4bb 573d b013 89bd e207 973d
00000090: 02d1 a83d 514c 56bd 34cf 903d 25e2 2dbd
000000a0: 7088 9bbd c64f 17be 4f78 fdbd 1b4e 1a3e
000000b0: 8f8b 98bd b7bf 553d c6cc b63d cab8 fa3d
000000c0: 7756 43ba 9e63 233d b377 ccbd cd51 193e
000000d0: 0fc3 1bbe 3df7 0bbd 97fd b63c 255d 95bc
000000e0: e8ba 833d cae2 ff3d 11ad 9f3d 7ae7 5cbd
000000f0: 11f5 89bd ebfa 30bd 7a12 dcbd 5343 163e
00000100: 7871 03be 2648 ffbd a06a 1fbe 7e27 ff3d
00000110: bc09 c03d 9477 12be 4be2 89bc 8f3a f53d
00000120: 4551 463e 9dbf fe3d 16fe 7e3d d308 c43d
00000130: bf9c b1bc a9f1 c73d 37ec 05bd 80ba aebd
00000140: 3040 e2bd 0639 bebc 2be4 e53d 6848 2dbe
00000150: 6688 c5bd 4a54 953b a59b 7c3d 3b86 273e
00000160: 5d66 27be d521 253d 246c 9b3d 02c2 48be
00000170: 5caa 3e3e 389c 9cbd 72db 3b3c 9f55 03be
00000180: fe4f 373e de52 b7bd 42b6 7a3d dec3 e8bd
00000190: 73d9 13be f400 013e 6278 313d cedd 663b
000001a0: 6ec9 733c 9326 d3bd c378 173e 4bd9 483d
000001b0: a90c 233c afff 243e 27eb e8bd 8c2c 763d
000001c0: 6bc1 c0bd c14e 133e 1574 1d3e 918b c0bd
000001d0: eddc 92bd bf16 583d 6eef fabd 83a7 023e
000001e0: 2f45 383e a130 60bd d183 b0bd 35ce 27be
000001f0: f29f 47bb 8b79 f7bd acba 003e 899a 12be
00000200: 6674 b13d b22e 003d 3300 9c3d dde4 44bd
00000210: fafd cf3c f5ae cc3d d6d6 32be 6224 44be
00000220: d3f5 4dbd 65bc e9bd 70a7 e4bd 811a 303c
00000230: de31 833d 31d8 0bbe b298 f8bd b83f 103e
00000240: 7253 00be cfe2 dbbd 8bdc 2d3e 0d4e 1c3c
00000250: bd56 d33d ac8b 5b3d a98b 49bd d44f b93d
00000260: 7893 e7bc 3f89 333d a527 093e 11e3 a0bd
00000270: 5629 3b3d ced1 08be 171a 983d 15ab 1b3e
00000280: a2bc 1bbe 1e22 3fbe 7f04 cd3d 2d88 0b3e
00000290: e687 93bd 0a3a 0f3d 4b83 35be 27f2 2abe
000002a0: 5b0f 353e 842c 5cbd c49b ae3c 3957 d8bd
000002b0: 9ebb 7dbd 2f8f b7bc a5a2 19bc 884e edbc
000002c0: fd5f 75bd 273e baba e865 d73c 9ffe babb
000002d0: 0121 503c f903 ccbd 18c5 293e 0d45 20be
000002e0: 7230 03bd c2a6 143e 3e03 9a3d 3328 a93d
000002f0: 55b3 123d b180 d53b c0d2 87bd ebf1 693d
00000300: 4b92 d03d 6f01 efbd 7571 e83d 394b 30be
00000310: 2ee4 f63d 31da e13d d9f8 14bd 9ca7 debd
00000320: 3996 39be 2dca d9bd 30ab 4f3d 1649 053d
00000330: b902 4ebe 06bb 183e 5acf 0b3e 1ce6 e9bd
00000340: 7681 313e 32c9 063d 816d e7bc 8c2a 2fbd
00000350: 64a8 fdbd 3314 2b3e 667d e2bd deac 4b3c
00000360: dd70 06bd c9c8 5cbd 3ecb 513b 8455 68bd
00000370: 5abc 863d c88d dabd 1f00 0abe 409f 17be
00000380: 6865 e33d 1cc0 633d 3f6a 123e 13b5 cd3c
00000390: 4141 0abe 4d4f 4bbd 6b2b a2bd bb34 17be
000003a0: 0a54 1c3e 2b35 15bd 42d8 c2bc fb4b 913d
000003b0: 57a2 a9bd eae2 11bd c310 09be 8550 62bd
000003c0: b632 c1bd 0664 ee3d a78d 123e d3fb e73d
000003d0: 54d1 123e 80ae 3abd 4e6c 8b3d e31c 8ebd
000003e0: 25cc c5bd 4378 3fbe 5630 04be 53d6 453d
000003f0: a928 193d 618f 2e3d 09a1 cd3d ddc2 c73d
-0.101784885 -0.047814883 -0.038322177 -0.041311175 0.14226575 -0.03464196 0.10764957 0.14506504
0.008663944 0.001869183 0.016505782 -0.008295373 -0.1001994 0.049827933 -0.02135237 -0.14169037
-0.05582014 0.09526626 -0.028553043 -0.040056538 -0.1521463 0.07013427 0.11763093 0.17186964
0.16299717 0.010502162 0.089947425 0.0026215462 -0.014977061 0.020875147 -0.013110369 0.0043881647
0.10197116 0.052669242 -0.06693208 0.073745504 0.0824299 -0.052318875 0.07070771 -0.042451996
-0.07594383 -0.14776525 -0.12376463 0.15068857 -0.07448494 0.052184787 0.08925776 0.12242277
-0.0007451544 0.039889924 -0.09983768 0.14972611 -0.15211128 -0.03417133 0.022337718 -0.018232891
0.06432134 0.124944285 0.07796682 -0.05393169 -0.06736196 -0.043208044 -0.107457116 0.1467412
-0.12836254 -0.12464933 -0.15568018 0.124587044 0.09376857 -0.14303428 -0.016831538 0.1197406
0.1936694 0.12438891 0.062254034 0.095719956 -0.021681188 0.0976289 -0.032695975 -0.08531666
-0.11047399 -0.02322055 0.1122516 -0.16922152 -0.096451566 0.004557167 0.06167187 0.16359799
-0.16347642 0.040315468 0.075889856 -0.19605258 0.18619674 -0.07646984 0.011465894 -0.1282563
0.17901608 -0.089513525 0.06120897 -0.11365484 -0.14438419 0.1259802 0.043327697 0.003522742
0.014879568 -0.10310092 0.1479216 0.04903535 0.009951749 0.1611316 -0.11372977 0.060101077
-0.094118915 0.14385511 0.15376313 -0.0940162 -0.071710445 0.052756067 -0.12252699 0.12759213
0.17995141 -0.054733876 -0.08618892 -0.16387255 -0.0030460325 -0.12083729 0.1257121 -0.14316763
0.08664779 0.031294532 0.076172255 -0.048069824 0.02538966 0.09994308 -0.17464766 -0.19154504
-0.050283264 -0.114128865 -0.11164749 0.0107485065 0.06405996 -0.13656689 -0.12138499 0.14086807
-0.12531832 -0.1073662 0.16978662 0.009540093 0.103192784 0.0536 -0.049205456 0.09048429
-0.02826856 0.04383206 0.1339403 -0.078558095 0.045693718 -0.13361284 0.07426851 0.15201981
-0.15208676 -0.18665358 0.10010623 0.13626166 -0.07203655 0.03496746 -0.17725866 -0.16693936
0.17681639 -0.05375339 0.02131451 -0.105635114 -0.061946504 -0.022407142 -0.009377156 -0.02896811
-0.059905995 -0.0014209197 0.02629371 -0.0057066227 0.012703181 -0.09961695 0.16579092 -0.15651341
-0.032028623 0.14516738 0.0752015 0.082596205 0.035815556 0.0065155854 -0.06631994 0.057115477
0.10184153 -0.11670195 0.11349765 -0.17216195 0.120552406 0.11027945 -0.036370132 -0.10871813
-0.18123712 -0.10634265 0.050700366 0.032540403 -0.20118226 0.14915094 0.13653317 -0.11420843
0.17334542 0.03290672 -0.028250458 -0.042765185 -0.123856336 0.16706924 -0.11059074 0.0124313515
-0.03282248 -0.05390242 0.003201201 -0.05672218 0.06578894 -0.10671574 -0.13476609 -0.14806843
0.11103326 0.05560313 0.14298342 0.025110757 -0.13501455 -0.049636174 -0.079184376 -0.14766209
0.15266433 -0.036427658 -0.02378476 0.0709457 -0.08282917 -0.035616793 -0.133853 -0.05525257
-0.094335005 0.11640172 0.14311849 0.113273285 0.14337665 -0.045576572 0.06807767 -0.069391035
-0.09658078 -0.1869822 -0.12909064 0.0483001 0.037392292 0.042617206 0.10040481 0.09753964

GCNs.1.MLP.linears.0.bias f4 [128]
00000000: b21b 17bc fad7 723c ffba 28bd 32dd 0c3c
00000010: dec6 debc ce2f 253c 361d 403c a9ff a63b
00000020: a0fd e03b 29e6 b03b 5c59 363b 6da4 70bb
00000030: 15e3 7c3c 233c 483c 3a36 f2ba a012 b43b
00000040: 9049 193b b0a5 633c b2ea cdbb 8a0d 483c
00000050: 058c 883c ac70 e4b9 8b4e 4b3c afe6 4f3c
00000060: 3d3b 803b a218 233b 5e35 60bc c190 09bc
00000070: 5850 52bc ecc1 88bb 7bb7 4ebc 5323 83bb
00000080: 87a4 58bc 433b 98bb 9632 11bc 868b b83a
00000090: 5af0 bcbc 12a3 91bc 6367 86bb 67c9 0cbc
000000a0: f154 4dba d762 21bc 4b0a 5fbc 6a74 943c
000000b0: 5b15 37ba 0808 13bc 59af 5c3b 9e7e 96bc
000000c0: 2ddc 093c a921 503b 6520 e4bb 504f 92bb
000000d0: a1b0 0bbc 63f6 5e3c 3595 cebc 457a 053c
000000e0: 691a 1cbc 7028 153a c33a 9ebb 6047 45bb
000000f0: f1c8 49bc 4162 d7bb 98f5 303b 221a a6ba
00000100: 25de 8b3c eb47 33ba f30b afbb 3b98 baba
00000110: 7041 1fbc df60 b1bb d1ad 4b3c 3ae5 153c
00000120: 1b16 8dbb 7ec8 d13b d5b9 6f3c 35c9 863a
00000130: b912 f73b b544 a1bc 6944 5bbb 2aa3 3abb
00000140: 89f0 96bb ec78 303c 017d 293c 73d2 7b3c
00000150: 1f5c 2e3b 1d08 08bc fcb6 1a3c ed2d 823b
00000160: 39c0 00bc 67a9 f7ba 5c8c c4bc c9eb 74bb
00000170: 4971 b33c 7419 193c 18ef 38bc 42ba e7bb
00000180: 309f 793c d184 b0bb 622e a9ba bf79 bbba
00000190: eeba 063b 2404 3fbb 057a 3fbb dd33 e7bb
000001a0: bbda bfbc 0248 033c 8d2b dabc 7aff 0a3c
000001b0: 13b2 54bc dea0 c03b baea e63b eb65 b1bc
000001c0: 335c 063c 71ba 003b 1c17 80bb d768 323c
000001d0: 90cb a9bb 83af 17bc 7dc0 01bc e2b3 703b
000001e0: d93f c83b 5d53 ba3b ba78 cf3b fbd1 683c
000001f0: 2421 f43a 0949 05bc a7f5 003c 21f0 79bc
-0.009222912 0.014822001 -0.04119396 0.008597659 -0.027194437 0.010082198 0.011725714 0.005096395
0.006866172 0.005398531 0.0027824258 -0.00367191 0.015435 0.012221369 -0.0018479296 0.0054953843
0.0023389794 0.013894483 -0.0062840814 0.012210259 0.016668329 -0.00043571496 0.012408863 0.012689277
0.0039133118 0.0024886508 -0.013684599 -0.008396328 -0.012836538 -0.004173508 -0.012616987 -0.0040020137
-0.01322282 -0.0046457364 -0.008862158 0.0014079667 -0.023063827 -0.017777953 -0.00410168 -0.00859294
-0.00078327867 -0.009850225 -0.013613294 0.018121917 -0.0006984078 -0.008974083 0.0033673851 -0.018370923
0.00841431 0.0031758344 -0.0069618695 -0.004465021 -0.008525998 0.013608548 -0.025217632 0.008146827
-0.009527781 0.00056899246 -0.0048287823 -0.0030102357 -0.012315975 -0.006572992 0.0027001854 -0.0012672583
0.0170737 -0.0006839025 -0.0053420006 -0.0014236042 -0.009720191 -0.0054131593 0.012431578 0.00914889
-0.0043056137 0.0064020744 0.014631708 0.0010283353 0.0075400737 -0.019686082 -0.0033457524 -0.00284786
-0.0046063107 0.0107710175 0.010344745 0.015369999 0.0026605201 -0.008302716 0.009443041 0.00397276
-0.007858329 -0.001889509 -0.02399271 -0.0037371984 0.021904605 0.009344447 -0.011287473 -0.007071764
0.015235707 -0.0053869267 -0.00129075 -0.0014303251 0.0020558196 -0.0029146755 -0.0029217016 -0.007055743
-0.023419729 0.0080127735 -0.026632095 0.008483762 -0.012981909 0.005878552 0.0070470246 -0.021655044
0.008200693 0.0019642378 -0.003909005 0.010889254 -0.0051817372 -0.009258154 -0.007919428 0.0036728312
0.006111127 0.005686207 0.0063315304 0.0142102195 0.0018625599 -0.008135089 0.007871068 -0.015255005

GCNs.1.MLP.linears.1.weight f4 [64, 128]
00000000: d578 e2bc e700 5fbd 8146 f63d 9a1c 30bd
00000010: 45f3 b3bd 2c1b ca3d 77d4 453e 53ff 293e
00000020: f52d 21be a562 c83d 1423 803d 1a6d 39bd
00000030: c26e 143c 9183 073d c1af b53b 710c 08be
00000040: 10fc 1f3d 5c36 1d3e 7a32 a0bd 5e73 413e
00000050: 541c 1b3b 5626 6b3d a748 673d 02a1 0f3e
00000060: 162b 98bd 306b be3d 4b5c ef3d 44a6 723d
00000070: d014 16be 936f 1a3e ea2b 1ebc ec82 ac3d
00000080: 9b99 ea3d 89f9 c9bd aa61 3cbd 00e2 13bc
00000090: 3a1c 24bc c3e6 0fbe d766 ba3d 91fc 21be
000000a0: 993b e2bd e7ef 07be b3d3 063e d814 83bc
000000b0: 715d 12be 5f58 9bbb 00c4 c33d bf32 8bbc
000000c0: 3499 623d 1474 d6bc f172 d63d c320 843b
000000d0: 36fd 51bc 4a9b 803d 4650 a1bd a61c 14bd
000000e0: a88e 643c 3e68 c1bd 33d9 a8bc 50e4 643c
000000f0: a612 283e 433f c33d ae4b a63d 9b16 f1bd
00000100: 3452 943d 6c65 40bd 2965 84bc 674f 803d
00000110: cf8c 10be 23da 23be 9160 06be c298 92bd
00000120: ea90 f4bd 2579 fcbd ae57 143e 77e2 24be
00000130: 5509 d8bd 9b2f 713d 1d80 383e 5e9e 1d3e
00000140: 5023 2b3b 776e 1a3e 2acd 823d 9510 0c3c
00000150: bd67 5b3d 0dcb 003e 0488 aabc 91d5 c2bd
00000160: 5778 1fbe b726 1f3a c73b 393e 4943 18be
00000170: f802 17be e72b 7dbc a43f 523e eb7b a33c
00000180: cedc 39bd 7ac4 f83d 8ea8 b43d bb92 d73d
00000190: f194 23be cc97 70bd a59a 2c3e 1811 ab3c
000001a0: f533 d83d b639 f2bd 7b71 1dbe f92a 6c3b
000001b0: 55e2 06bd c3f9 973c 9d51 c1bd 1ef7 0bbe
000001c0: 0566 113d 59be 80bd dd1d b93c bccd 093c
000001d0: b406 c0bd bebe 373e e2a3 b1bd e747 3d3e
000001e0: 019f c33d b178 5cbd 3d4e 0abe 3cd9 1b3e
000001f0: ffc5 b63d 172f e83d eed1 54be 1f39 063e
00000200: 6ad6 5abd 4ca0 103e 3f4a ddbd ff7a 2cbd
00000210: 2e98 e9bc 0605 12be f033 72bd 49e8 ffbc
00000220: d581 f1bd b686 0e3d ffc3 053e aed1 cf3d
00000230: a59e 35be dd5b e03c 39a5 b23c a8ab e8bd
00000240: 4c9d 80bd 331f 3dbc 014e 8b3c 5c05 033e
00000250: de8d 1a3e b105 db3d dc07 d2bc 42cf 0cbe
00000260: 7e21 ea3c a42f 0abe 8cb7 193c 0c46 2f3e
00000270: 26a7 b63d f360 1cbe a656 28be fe51 36be
00000280: a173 6dbd e8f2 003e 8e9f aebd 79f2 ed3a
00000290: 511d 87bb 0c63 913d f384 953d 7e1e cb3c
000002a0: d1f1 af3d 376d 133e bf30 edbc a10d f13a
000002b0: 98c9 1bbe 7117 b03d bf70 5fbc f588 dbbd
000002c0: b5bc 8d3d 8578 14bd 5d73 96bb 37f8 1bbe
000002d0: 0c4c f2bd af2a 1b3e 71b0 13bd 4772 e7bd
000002e0: 6007 be3d 748e 2e3e 0d90 813d 47aa ae3d
000002f0: 2f03 043e 55d8 1f3e 2edf b63d 3eb0 e13d
00000300: 1913 f43d 5ffb 9ebd e670 5b3b ad0b 22be
00000310: 32db ea3d e788 d0bd 4487 fb3d f9bf a9bd
00000320: 5f5c 91bd 7cef fcbd f33f 7a3d 1fb7 babd
00000330: 25f3 f83d 1fb6 16be f0ed d7bc 19b1 f0bd
00000340: 7e3d 053e 4065 303b 1651 d83d 37c1 c4bd
00000350: 1256 ba3d 0986 acbc bee1 313e 9ad9 193e
00000360: 8d95 323e d0a2 bebd c9f4 1fbe 5f14 2b3c
00000370: c168 90bd 6f60 fbbd 23fc cd3c 2b89 a2bd
00000380: f0bd 2f3d 3ee6 e9bd a78e d9bd a861 6b3c
00000390: 5886 e7bd f4e3 4d3c 56b0 003e 2a66 2dbc
000003a0: 89bd a0bd 4378 ce3d 9c4d 38bd c501 423e
000003b0: e168 a8bd 29d7 09bd f93c 483c fd53 323d
000003c0: cd4e 8abd b3bb d2bc d3ab 06be ef2d a0bc
000003d0: 0ac1 a1bd 404f 0cbb b759 a53d 3237 973d
000003e0: e146 203c 42b2 57bd 1632 9c3d 8df8 ce3d
000003f0: cb5f 1ebe 0d51 cabd 15fe 2c3d 4683 dbbd
-0.027645508 -0.05444422 0.12025166 -0.042996027 -0.08786634 0.09868464 0.1931933 0.16601305
-0.15740187 0.0978444 0.062566906 -0.045270063 0.00905961 0.033084456 0.005544633 -0.13285996
0.039058745 0.15352768 -0.07822128 0.18891665 0.0023668008 0.057409607 0.05646577 0.14026263
-0.07430093 0.09297788 0.11687525 0.059240595 -0.14656377 0.15081625 -0.009654025 0.08423409
0.11455079 -0.09862048 -0.045991577 -0.009026051 -0.010016495 -0.14052872 0.091016464 -0.15819003
-0.110465236 -0.13275109 0.13166694 -0.01600115 -0.14293458 -0.0047407593 0.095588684 -0.016991971
0.055321887 -0.026178397 0.10471142 0.004032226 -0.012816718 0.06279619 -0.07876639 -0.036160134
0.0139500275 -0.09443711 -0.020611381 0.01397045 0.16413364 0.095335506 0.081199035 -0.1177189
0.072422415 -0.046971723 -0.016161518 0.06265145 -0.14116214 -0.16001181 -0.13122775 -0.071580425
-0.11941703 -0.12327794 0.14486572 -0.16102014 -0.10548655 0.05888329 0.18017621 0.15392444
0.0026113577 0.15081201 0.06386788 0.008548875 0.05356573 0.12577458 -0.02081681 -0.09513391
-0.1557325 0.00060711376 0.1808921 -0.14869417 -0.14747226 -0.015452362 0.2053209 0.01995655
-0.04537659 0.1214685 0.08821212 0.105260335 -0.15974785 -0.058738515 0.16855867 0.020882174
0.10556785 -0.11827414 -0.1537532 0.0036036356 -0.03293069 0.018551713 -0.094393946 -0.13668486
0.035497684 -0.06286306 0.022597248 0.008410867 -0.093762785 0.17943856 -0.08673836 0.1848446
0.09551812 -0.053826038 -0.13506408 0.15219587 0.089244835 0.11337107 -0.20783207 0.13107727
-0.053427137 0.14123648 -0.10805177 -0.042109486 -0.028514948 -0.14259729 -0.059131563 -0.031238692
-0.117923416 0.03479644 0.13063048 0.10147415 -0.177363 0.027387554 0.0218073 -0.11360866
-0.06280002 -0.011543083 0.017004969 0.12795013 0.1509318 0.10694445 -0.025638513 -0.13750938
0.028580423 -0.13494736 0.00938214 0.17116565 0.089186 -0.15271358 -0.16439304 -0.17804715
-0.0579716 0.12592661 -0.085265264 0.0018153928 -0.004123368 0.0709897 0.07300749 0.024794813
0.08591045 0.14397131 -0.028953908 0.0018390903 -0.1521362 0.08598221 -0.013637721 -0.10719482
0.06920759 -0.03624775 -0.004591389 -0.15231405 -0.11830911 0.15153001 -0.03605694 -0.113010935
0.092787504 0.17046529 0.06326304 0.085285716 0.1289184 0.15609868 0.08929287 0.11019944
0.11917705 -0.07762789 0.003348404 -0.15824766 0.114675894 -0.10182362 0.12281659 -0.08288569
-0.070976965 -0.123503655 0.061096143 -0.09116959 0.12155751 -0.14717911 -0.026358575 -0.11752529
0.13011739 0.0026915818 0.10562341 -0.09607165 0.09098448 -0.021060007 0.1737127 0.15024415
0.17439862 -0.09308398 -0.15620722 0.010441869 -0.0705123 -0.122742526 0.025144642 -0.07936319
0.042905748 -0.11420868 -0.10622912 0.014366545 -0.11304921 0.012566555 0.12567267 -0.01058344
-0.07848651 0.10081532 -0.04499589 0.18945988 -0.08223129 -0.03365246 0.012221568 0.04353713
-0.06753311 -0.025724268 -0.13151483 -0.019553153 -0.078981474 -0.0021409541 0.080737524 0.073835745
0.009782524 -0.052660234 0.07626741 0.10106001 -0.1546623 -0.098787405 0.0422345 -0.10718398

GCNs.1.MLP.linears.1.bias f4 [64]
00000000: 18ea b43c 17b8 cfbb e6c8 f83c 405a b23c
00000010: 7bfc e8bc 68b3 8e3b 7170 b93c 94ec 473b
00000020: 3cbf fe3b 9a92 a039 b420 f23b 8bae cf3c
00000030: b95e 76ba 0808 ca3c 02da daba 1355 833c
00000040: f263 8a3b 4afc 123c 7ea4 18bc fdde 59bc
00000050: d28e f73b fa32 41bc 160d 8e3c f564 22ba
00000060: 8e83 18bc e569 ffba 13b6 09bc 3ca0 053d
00000070: ce02 a73b 4057 42ba 96fd 8cbb 831f e0bb
00000080: 60aa b5bb f538 02bc f85d 9b3b 1e16 6abc
00000090: 2436 c53c 8675 ae3a 0e51 5a3b 8d13 83bc
000000a0: d71f fdbb 888a 153d ebe6 993c 203a 443c
000000b0: edc4 1c3c bf9e b53a f1b4 0d3d a729 803c
000000c0: e400 163d 8614 d53b be5d c73b c902 5d3b
000000d0: 89ad f5bb db02 553c e88c fe3c b6d8 be3c
000000e0: 0a42 0cbc 536d 0e3c 8c69 003c 13bd 623b
000000f0: 87a3 283c b327 16bc efea 053c 7773 8e3a
0.02208428 -0.006339084 0.030369233 0.02177155 -0.028440705 0.004354883 0.022636624 0.0030506002
0.0077742618 0.00030626805 0.0073891524 0.025351783 -0.000939827 0.024662033 -0.0016697051 0.016031777
0.00422334 0.008971283 -0.009316562 -0.013297793 0.0075548673 -0.011791939 0.017340224 -0.00061948533
-0.009308709 -0.0019486515 -0.008405226 0.032623515 0.00509677 -0.0007413514 -0.0043026907 -0.006839694
-0.005543992 -0.00794815 0.0047414266 -0.0142875 0.024073668 0.0013310171 0.0033312473 -0.016000533
-0.007724743 0.036509067 0.018786868 0.011976749 0.009568435 0.0013856514 0.034596387 0.015644861
0.036621943 0.0065026907 0.006084173 0.0033723584 -0.0074974936 0.013001169 0.031073049 0.023296695
-0.008560667 0.008693057 0.007837664 0.003459756 0.010292894 -0.0091647385 0.008173688 0.0010868151

GCNs.1.MLP.batch_norms.0.weight f4 [128]
00000000: ba71 823f 7a81 743f 9279 7b3f 0aa5 793f
00000010: 8044 813f fff0 803f bde3 833f 557e 853f
00000020: 9bfc 7c3f 2ffd 7d3f 2b94 793f 76cf 793f
00000030: 8c4b 7e3f 4e18 803f 6cb5 7b3f b4ba 803f
00000040: 7e94 763f 6f1e 823f 3389 7e3f 998b 813f
00000050: cad6 7b3f 1eb3 7f3f 0500 783f 4e75 833f
00000060: 5e08 853f ad0a 7a3f fcb3 7f3f 4ed6 813f
00000070: b3d2 7e3f 9228 833f f35a 803f 259f 7a3f
00000080: 4dae 7e3f 699a 793f b4d2 7d3f 7a2f 833f
00000090: ddd3 783f 2090 803f b5f4 7b3f 2c8a 803f
000000a0: ede1 793f ec54 783f 03f0 823f 97f4 7e3f
000000b0: 4c81 833f ec26 783f b93f 7a3f 0c03 7d3f
000000c0: c054 763f 50e9 803f b1c9 813f 1e22 7c3f
000000d0: 1342 793f 0178 7e3f ac5e 7c3f 5706 7a3f
000000e0: 4829 7a3f 9a21 823f 478f 7a3f bfc3 843f
000000f0: 0faa 7d3f cdd5 763f c0b0 783f b492 7c3f
00000100: a7e8 7f3f 8620 813f ec06 793f 3e03 7b3f
00000110: 7078 773f 69e4 813f e5c5 803f a7b9 783f
00000120: 32c5 743f 8c7a 7f3f c15c 783f 9bfb 803f
00000130: b456 7e3f 4ef7 803f c7a3 823f a202 7e3f
00000140: c297 7d3f 8da5 7a3f bd37 7c3f 16c8 813f
00000150: 25d3 7b3f 34a8 7d3f 2c70 793f 1cfb 7c3f
00000160: cb68 7f3f ff45 723f be77 813f aa4b 833f
00000170: 6baf 803f 89b2 793f 967a 843f 554a 7f3f
00000180: 1718 813f d848 7a3f c9a1 7d3f 3911 7a3f
00000190: 2e3c 7e3f cba1 7b3f ee2a 793f 7909 7d3f
000001a0: d7e2 873f 04d8 7b3f e222 843f 89ac 7e3f
000001b0: cd44 883f 52a6 783f 4555 763f 927f 7a3f
000001c0: 5967 793f 5eda 853f ad40 803f be3a 833f
000001d0: bc66 853f 4895 783f 0428 7c3f d80b 7e3f
000001e0: c89d 7e3f 4453 783f e8af 793f 3683 7b3f
000001f0: 584d 753f 0aa9 7d3f f952 853f 4163 7c3f
1.0190957 0.95510066 0.98232377 0.97517455 1.009903 1.0073546 1.0303875 1.0429178
0.98822945 0.9921445 0.9749171 0.97582185 0.99334025 1.0007417 0.983237 1.0056977
0.9632033 1.0165538 0.994281 1.0120727 0.9837462 0.99882686 0.9687503 1.0270174
1.0393178 0.9767254 0.9988401 1.0143526 0.9954025 1.0246756 1.0027755 0.97899085
0.9948471 0.97501236 0.9914963 1.0248864 0.9719828 1.0043983 0.9842027 1.0042167
0.9761036 0.9700458 1.0229496 0.99591964 1.0273833 0.9693439 0.97753483 0.98832774
0.9622307 1.0071201 1.0139676 0.9848956 0.97366446 0.9940186 0.9858196 0.97665924
0.9771924 1.0166504 0.97874874 1.0372237 0.99087614 0.96419984 0.971447 0.9866135
0.99964374 1.008805 0.97276187 0.9805182 0.9666815 1.014783 1.0060393 0.97158283
0.95613396 0.99796367 0.9701653 1.0076784 0.9935105 1.0075471 1.0206231 0.9922277
0.9905969 0.9790886 0.9852255 1.0139186 0.98369056 0.9908478 0.97436786 0.9882066
0.99769276 0.94638056 1.0114667 1.0257466 1.0053533 0.9753805 1.034991 0.99722797
1.0085477 0.977674 0.9907499 0.9768253 0.99310577 0.9829375 0.9733113 0.9884258
1.0616101 0.9837649 1.0323145 0.9948202 1.0645996 0.97128785 0.9622386 0.97850907
0.9742332 1.0457265 1.0019737 1.0252302 1.0421977 0.97102785 0.9849856 0.9923682
0.99459505 0.97002053 0.97534037 0.98247087 0.9582114 0.9908606 1.0415946 0.9858895
